assets/nignet_fit_to_naca2412.pth (torch, 5306 bytes, 10 tensors)

linear_layers.0.weight f4 [2, 2]
-0.6207258 0.9746886 -0.4577736 -0.5674504
00000000: e3e7 1ebf 3185 793f 4d61 eabe 6e44 11bf

linear_layers.0.bias f4 [2]
0.8957741 -0.93570954
00000000: 7451 653f a98a 6fbf

linear_layers.1.weight f4 [2, 2]
-0.8961496 -0.5216476 0.07039612 -1.2586384
00000000: 0f6a 65bf b28a 05bf d72b 903d 101b a1bf

linear_layers.1.bias f4 [2]
0.50908273 -0.89355266
00000000: 3f53 023f debf 64bf

linear_layers.2.weight f4 [2, 2]
0.07477269 -1.1742773 -1.3411458 0.21406548
00000000: 6d22 993d b84e 96bf aaaa abbf fb33 5b3e

linear_layers.2.bias f4 [2]
0.36221254 0.0068709105
00000000: ec73 b93e 6025 e13b

linear_layers.3.weight f4 [2, 2]
0.87892604 0.6254931 0.58317137 -1.549908
00000000: 4c01 613f 5120 203f b84a 153f 6363 c6bf

linear_layers.3.bias f4 [2]
-0.19294457 0.36637527
00000000: 4393 45be 8a95 bb3e

final_linear.weight f4 [2, 2]
-1.6708074 0.701202 -0.09757626 -0.29718354
00000000: 04dd d5bf f981 333f 10d6 c7bd 7128 98be

final_linear.bias f4 [2]
0.22937194 0.11812504
00000000: 7ae0 6a3e 8aeb f13d
